DQN_plainCNN.pth (torch_old, 912397 bytes, 22 tensors)

conv1.weight f4 [32, 1, 5, 5]
00000000: 3827 303d df0d 013e e34a 43be 9864 ee3d
00000010: 62dc f3bd d7cd 83bc 1af0 cdbd 911e 34be
00000020: 7f95 1c3e 8d04 1bbf bb35 873e 731c 683d
00000030: eef1 f0bd b675 8bbd c678 4bbb 6253 1d3f
00000040: 6539 613e f8c2 1cbe 0ef0 283e ede9 03bf
00000050: d5d0 1dbf 2626 213e d2ea 163e 52d1 153e
00000060: 3aa3 cebe c77d 093e 9f53 8fbc 45fe ed3d
00000070: fb6f f93e e545 ecbd 3bce 10bf 71c8 473d
00000080: 519b e83e ef81 cebe 0aee 373e bb5f b33c
00000090: 8094 a2be 0362 8f3e 74c5 c23d 3ec3 e6bd
000000a0: 3fdb 953d 739f e8bd 9acd 15bf bdf8 bebe
000000b0: df83 363f 83be 113f 3d77 60be 4e41 1cbe
000000c0: c7e3 163e 1dd5 98be b2fb 433c da4f 10be
000000d0: a6d5 2bbe 0c79 f5be df50 1fbe 330b 5dbe
000000e0: 7b85 94be 1b5a e9be 97bb f9be b2d6 903d
000000f0: 4757 e0bb 0825 b23d bb0e 5a3c dcbc 083f
00000100: 2a7d a9be 3c05 3ebe d977 c63e 87ad 2d3d
00000110: 1532 a6be 7515 a6bd 9344 da3e 1d10 c5be
00000120: 8ed4 86bc e5e5 533e 9dca c7be 3038 bf3e
00000130: 7427 fd3e ad53 f3bd 0d46 51be ffe7 e33d
00000140: c04f ca3e f144 b7bd 93a9 b03e dc09 97be
00000150: 001b 3f3e 270e bfbe 6aa4 3fbf 9943 823e
00000160: 4bef 1abe 4f44 02bf 103b e5be 381e 94bc
00000170: 4d45 fdbe 8dbd fa3e 8b2f f43d 8858 d8be
00000180: b152 5d3e b622 84be 5656 fdbe 6763 46bd
00000190: a9fb 79be 020b 0d3f a123 68bc de3d 8e3e
000001a0: d1b9 2f3e 7717 413e 9118 bcbe 94db 08bf
000001b0: ab81 25be d2d2 7fbe a9af af3e 6824 43bf
000001c0: 17a3 9f3c 0d2d c53e d5d6 f43d f435 b7be
000001d0: c4ed ffbe d504 a03c 7765 003f dfd9 eebd
000001e0: 875a 223e 38bd 9abe 14ab 93be 820a eabe
000001f0: 3203 a83e 88b1 39be 8159 993d fb1d 223e
00000200: 205d b13e cf46 403e fa2e 00bf e017 433e
00000210: afee 51bd d730 af3e 576f 97be 7bb9 633e
00000220: 7993 753e c6da a83a 08ef 35bd 7ed3 dfbe
00000230: aedf 33bd 3a23 0fbf ddff 693e 7b61 ba3d
00000240: 1178 e5bb 33a8 7e3e 2537 d93e 5d04 343e
00000250: a647 0fbf 573f 983c 9dc2 cbbe f67f 8a3e
00000260: 0524 573e 1967 9f3e dbba b3bd f65a f03d
00000270: 0473 f23e 555a 0cbb 8d2f 27bc ba2b 083d
00000280: 0c76 0f3f 05f4 a43d 3fa2 06bf f126 70be
00000290: 1ebf 1dbd 0668 8dbe d796 63be 865a 36be
000002a0: 8a6a b2be 73db 4fbd 362e 9b3e aa75 8abe
000002b0: e0a4 703e 1895 7c3e 56db bdbe 5189 05bf
000002c0: 3750 32be 595d c4be 3cd4 093f 72b3 cd3e
000002d0: 6d8e 4ebe 76cb 073e c1a5 5bbe 99aa 70bd
000002e0: 327e 08be 0c3f 15be 3f65 46bd 3c2b 063e
000002f0: 4e51 cebe ee6c 1a3e 1cb9 013f c2b4 97be
00000300: 348d b3bd 772a 7a3e e56a e33b a943 50be
00000310: 2d3d cbbe 0d7a b8be cbdf 243e 0617 e53e
00000320: 5a7d 0fbd d3ee 9b3d 516b 32be 18cf 25be
00000330: 2b6c 44be e354 6abd d889 24be 481d 853d
00000340: f247 31be c5f4 70bd 9575 aabd 9ba1 e1bd
00000350: 8ca6 ad3e d546 0fbe 4c7d 863b 8ea1 87bf
00000360: f02b f23e 439c 2c3d b9cf 9a3e 6e0b 473e
00000370: df12 913d d8ff cebe 14d8 adbe 5dcd c0bd
00000380: 8ac9 473e 6b8b 00bf f3a4 22bf 25a8 0bbe
00000390: 68bf 6d3d bac8 9dbe 561f 8dbe cd47 ab3b
000003a0: 729d 8a3e 8848 a3bd d68e 4cbd 00f6 df3e
000003b0: e8e9 103e af11 4fbe d49e 08bf e544 f63d
000003c0: 4f51 b3be dcbb 0bbf 97db ec3e b998 dbbe
000003d0: bb9a ed3e d821 96be 8d47 cd3e 2a27 9cbe
000003e0: 999e 48be b61a 8bbe 0617 e33e 4fa7 32bf
000003f0: a38b 063f ec21 843e bc78 93be f48d c3be
0.043006152 0.12602948 -0.19071536 0.116402805 -0.11907269 -0.016089363 -0.10055561 -0.17589785
0.15291403 -0.6055382 0.2640818 0.056667756 -0.117648944 -0.06809561 -0.0031047328 0.6145536
0.2199455 -0.1530875 0.16497824 -0.5152882 -0.6164678 0.15737209 0.14738014 0.1463063
-0.40358907 0.13426886 -0.017495928 0.11620764 0.48718247 -0.11536769 -0.5656468 0.04877514
0.45430997 -0.40333506 0.17961898 0.021896234 -0.31753922 0.28004465 0.095103174 -0.11267708
0.073172085 -0.113585375 -0.5851685 -0.37299147 0.7129497 0.5693132 -0.21920486 -0.15259287
0.14735328 -0.29850093 0.011961864 -0.14092961 -0.16780719 -0.47943914 -0.15558194 -0.21586303
-0.29008088 -0.45576558 -0.48775932 0.070722 -0.006846342 0.086984694 0.013309176 0.53413177
-0.33103305 -0.18556684 0.38763312 0.042401817 -0.32460085 -0.08109561 0.42630443 -0.38488856
-0.016458776 0.20693167 -0.3902177 0.37347555 0.49444163 -0.11881194 -0.20436879 0.11128234
0.3951397 -0.089486964 0.34504375 -0.2949971 0.18662643 -0.37315485 -0.7486025 0.25442198
-0.15130346 -0.5088548 -0.44771624 -0.018080816 -0.49466935 0.4897274 0.119231306 -0.42255044
0.21613576 -0.25807732 -0.49479932 -0.04843464 -0.24412407 0.5509492 -0.014168651 0.27781576
0.17160727 0.18856607 -0.36737493 -0.5346005 -0.16162746 -0.24982765 0.34313706 -0.76227427
0.019486947 0.38510934 0.119550385 -0.3578335 -0.49986088 0.019533554 0.50154823 -0.11662649
0.15854846 -0.30222487 -0.2884146 -0.45711142 0.32814938 -0.18134129 0.07487775 0.15831749
0.3464136 0.18777011 -0.5007168 0.19052076 -0.051253017 0.3421695 -0.29577133 0.22238724
0.23982038 0.0012882582 -0.04441741 -0.43716043 -0.04391449 -0.55913126 0.2285151 0.09100624
-0.0070028384 0.2486885 0.42424884 0.1757979 -0.559687 0.01858489 -0.39796916 0.2705075
0.21009834 0.31133345 -0.08775874 0.117360994 0.47353375 -0.0021416147 -0.010204208 0.033244826
0.560395 0.080543555 -0.5259132 -0.23452355 -0.03851234 -0.27618426 -0.2222551 -0.1780797
-0.34846908 -0.050746392 0.30308694 -0.27042896 0.23500395 0.2466625 -0.37081403 -0.52162653
-0.17413412 -0.3835247 0.5383947 0.40175968 -0.20171519 0.13261208 -0.21449949 -0.058756445
-0.1332939 -0.14574832 -0.0484364 0.1310243 -0.40296406 0.15080616 0.5067308 -0.29630095
-0.08767167 0.24430262 0.006940233 -0.2033831 -0.3969511 -0.36030617 0.16100995 0.44744128
-0.035031654 0.076139115 -0.1742375 -0.16192281 -0.19181888 -0.05720986 -0.16068208 0.064997256
-0.17312601 -0.05882718 -0.08323208 -0.11017152 0.33916128 -0.13991864 0.004104292 -1.0596178
0.47299147 0.04214121 0.30236605 0.19437954 0.070836775 -0.40429568 -0.33953917 -0.0941417
0.19510475 -0.50212735 -0.6353294 -0.13638361 0.058043867 -0.30817205 -0.2756297 0.005227065
0.27073246 -0.079728186 -0.049940906 0.4374237 0.14151728 -0.2022159 -0.5336735 0.12024859
-0.3502297 -0.54583526 0.46261284 -0.42889956 0.46407112 -0.29322696 0.4009365 -0.3049863
-0.1959175 -0.27168816 0.44353503 -0.6978654 0.5255682 0.2580713 -0.2880305 -0.3819424

conv1.bias f4 [32]
00000000: 6cda 29bf 6959 0ebf b30c a8be 4127 8e3e
00000010: ece7 44be a432 2fbf 170e 85be cb04 b9be
00000020: bfea dcbe ab85 843c 399c 343e 1fbb f0be
00000030: 84ba a6be 6a29 8abc a231 a7be b94a 7abe
00000040: 6015 73be 1034 9dbc 01c3 cabd 1d6b 44be
00000050: b8ba f1bd ef04 803e 23b1 4dbd 17d9 13bf
00000060: db43 d5be 9cd8 a7be c32e 92be 94fc b6be
00000070: 5f74 aebd f5fc 93be 4e98 8abc 0269 91be
-0.6634891 -0.5560518 -0.3282219 0.27764323 -0.19229096 -0.68436646 -0.25987312 -0.3613647
-0.43147847 0.01617702 0.17637719 -0.47017762 -0.32564175 -0.01686545 -0.32655054 -0.24442567
-0.23738623 -0.019189864 -0.09900475 -0.19181485 -0.11803192 0.25003764 -0.05021776 -0.5775313
-0.41653332 -0.32782447 -0.285513 -0.35739577 -0.0851829 -0.28903928 -0.016918328 -0.28400427

conv2.weight f4 [32, 32, 5, 5]
00000000: 6444 7cbe 3bcd cfbd 4989 3fbf e81b 89be
00000010: ce01 febd c2a1 90be da27 3e3e 86c3 58bc
00000020: a257 d83d f1dd 70be 68d8 0abe e86b da3d
00000030: 4f68 1b3f c39d 37bf fb44 aa3d ecce c2be
00000040: 86f4 5e3e ae75 323d a3b4 13be 323b dcbe
00000050: 492d 21be 399e d5bd cf38 d7be f501 d4bd
00000060: da56 873c 1e94 9e3e bcca c6bc aa40 b83e
00000070: 86e6 19be a09e 8a3d 1d31 09bd 63e1 ab3d
00000080: 2269 b8bc 1528 833e ac78 33be cb33 b7be
00000090: 7c9a 3cbd 0d2a 18be d77a 1abe a929 28bf
000000a0: e828 ae3d f308 83be fad4 08be b306 f2be
000000b0: 2e4d 9bbe 0cad 49bd 10b4 cc3e 897e 6bbf
000000c0: e149 3fbf 5b75 bdbe e35c b53d 5768 6cbe
000000d0: 6b46 b93e 753c c73e e773 e3be ff1b 98bd
000000e0: 44db 19bf a9b7 823e f1b6 dabe 336e d3bc
000000f0: c08d 9abd 4ac9 243d d763 cebc aa1f 993e
00000100: cf45 4f3e 947a fc3e e4ae b63e baa9 d93e
00000110: 006b debd c959 013d 9244 cc3d 2073 f1be
00000120: f7a4 71be da2c 48be aef9 cc3e fa02 dcbe
00000130: 653d d73e 4030 6b3d 9daa 91be 8256 70bc
00000140: 5124 a53d 1593 d1be 07fd ebbd 4ac1 1fbc
00000150: a6b8 ee3e b866 2e3d fdf2 0abf d882 a93e
00000160: 68df 3bbf c0a3 a6be f1db 363e 0547 243e
00000170: b45b 62bc 1251 963d 0352 49bc c208 fabe
00000180: 5a69 ba3e 8c88 7dbe b942 78be 9d71 25bf
00000190: 2455 7fbe 5c69 323f c7f0 19bd e74b 7b3e
000001a0: 4c8a 21bd 7f25 883e 4fbc cfbd c326 b0bd
000001b0: fb7f bdbe 00b9 e9bd 3880 823e fd88 aebe
000001c0: ff03 c23d 4599 2dbe ddf2 a43c 8ba1 3e3e
000001d0: e83f 2b3e af2f 4bbd 2bea 4f3d b99a aebe
000001e0: 69d7 babe 58b0 ffbe e21e 20be 022a 0c3e
000001f0: a618 debe ccde 2abf dd90 663e c671 863d
00000200: 8581 c9be 0340 aabe 6d4e 643d f4c3 d2be
00000210: 5ccb 3abd ad55 163f 23b7 16bf 0b1f 993c
00000220: abe9 d03d 2001 1d3e 5a89 a63e 6ad5 223d
00000230: a1cd 55bf 2a83 38be 6ad4 083e 4938 b6be
00000240: 0bd6 e13e 4ae0 71be b661 f7be d13f c2bc
00000250: 3d4e fbbd e398 11bf 8317 a5be cab1 50be
00000260: 749f 113e c5c5 a9bd e154 bdbd 45d4 4bbe
00000270: f17d e6bd ad1b abbe bc25 813d 3ecc 0abe
00000280: 387a 00be e1b9 6bbd d835 3ebe 5b1c 75bd
00000290: 43d0 78be 0958 4abe 2ab9 513e 6e03 1ebc
000002a0: 40f0 7fbe ddec 913d 9933 c93e 9843 55be
000002b0: 5709 b1be e331 bbbe b6fa 80bd 377b f1bd
000002c0: 870b 0c3e 8c6c b73d 6d75 883d 8d3d c33d
000002d0: 0f74 d13d 5fbb 23be cfc0 9a3d 2c9c bdbc
000002e0: c0c4 cebe daed 933d 2d8b 1d3e 4492 06be
000002f0: 0527 a5bc aa83 79be a0f7 9abe 2484 243e
00000300: 9a81 8cbe e4d4 bbbe eccd 93be bcf5 e6be
00000310: 3b2c 10bd 8c70 b53e 1f8f 2ebe 24a7 efbe
00000320: 4ee0 8cbe cc68 e53d 46d8 aa3c 1f0d 85bd
00000330: 7eb1 893c 38a5 1a3e cef4 6f3e 190f 043e
00000340: 61e3 55be ed7d 293e 3dae 00be b74c 6c3e
00000350: ad64 0bbe c6b1 a7bd 013a f9bd 30f5 db3c
00000360: de32 37be 7985 a83e fda0 bbbe ec9c 8c3d
00000370: a1f2 37be 5f7a 373e e808 b5be 9a62 85be
00000380: e369 efbd 62e7 123e 947e 323e b81f c23d
00000390: 8e20 debe 7a4f 5abd 263c 513d 51e2 30be
000003a0: 103a 653e 7add c03e 9120 ab3c 7b88 543e
000003b0: 8f83 edbe 5d47 a4be c457 d93e d18f f3bd
000003c0: 8f84 523c 95da b13d 8e02 c2bd b751 0ebf
000003d0: 82c4 b7bd ad1d 0abe e2ad 9c3e efcb 06bf
000003e0: e685 5e3e 991c bfbe 189c c3be d3db 80be
000003f0: 5db8 10bf 18af 4e3d c592 0cbe f23b 63be
-0.24635464 -0.101465665 -0.74818856 -0.26779103 -0.12402688 -0.2824841 0.1856989 -0.01323021
0.1056359 -0.23522164 -0.13559115 0.10665113 0.6070604 -0.717251 0.08313938 -0.38048494
0.21772966 0.04356926 -0.14424376 -0.43013912 -0.15739931 -0.10430569 -0.4203553 -0.10351936
0.016520906 0.3097238 -0.024266593 0.35986835 -0.15029344 0.067685366 -0.033494104 0.083925985
-0.022511069 0.25616518 -0.17526501 -0.35781702 -0.046045765 -0.14859791 -0.15085922 -0.6568857
0.08503896 -0.25592765 -0.13362494 -0.47270736 -0.3033232 -0.049237296 0.39981127 -0.9198995
-0.74722105 -0.37003598 0.08855607 -0.23086677 0.36186537 0.38913313 -0.44424364 -0.07427215
-0.601002 0.25530747 -0.42717698 -0.025809383 -0.07546568 0.040231027 -0.025194092 0.2990697
0.20241474 0.4931227 0.35680306 0.42512304 -0.108602524 0.031579766 0.09974016 -0.47158146
-0.23598085 -0.1954836 0.4003424 -0.4297102 0.42039028 0.05741906 -0.2845048 -0.014669063
0.080635674 -0.40932527 -0.115228705 -0.009750674 0.4662525 0.04257843 -0.5427702 0.33107638
-0.73387766 -0.32546806 0.17857338 0.16042717 -0.013815809 0.07339682 -0.0122876195 -0.48834807
0.36408502 -0.2475912 -0.24244203 -0.64626485 -0.24934822 0.69692016 -0.03758314 0.24540673
-0.03943853 0.26591107 -0.10143339 -0.08601143 -0.37011704 -0.11412239 0.25488448 -0.3408889
0.094734184 -0.16952999 0.020135337 0.18616311 0.16723597 -0.04960602 0.05076043 -0.3410242
-0.3649247 -0.49939227 -0.15636781 0.136879 -0.4337818 -0.6674621 0.22516198 0.06564669
-0.39356628 -0.33251962 0.055738855 -0.41165125 -0.045604095 0.5872448 -0.58873194 0.01869156
0.10200819 0.1533246 0.32526666 0.03975431 -0.8351689 -0.18018785 0.1336228 -0.35589817
0.44108614 -0.23620716 -0.48316735 -0.02371207 -0.12270782 -0.5687391 -0.322445 -0.20380321
0.14220983 -0.08289675 -0.09244705 -0.19905193 -0.1125449 -0.33419552 0.063060254 -0.13554475
-0.12546623 -0.057550315 -0.18575227 -0.059841495 -0.24298196 -0.19760145 0.2048079 -0.009644372
-0.24993992 0.07125256 0.39297178 -0.20826566 -0.34577438 -0.36561498 -0.06297819 -0.117910795
0.13676272 0.089562505 0.06663022 0.09533224 0.102272145 -0.15989445 0.075563066 -0.023145758
-0.40384483 0.07223101 0.15385123 -0.13141733 -0.020160208 -0.24366632 -0.30267048 0.16066033
-0.27442628 -0.3668586 -0.28868043 -0.45109355 -0.03519843 0.3543743 -0.17046784 -0.46807206
-0.2751488 0.11201629 0.02085508 -0.06496643 0.016808268 0.15102088 0.2343323 0.12896384
-0.2088752 0.16551943 -0.12566467 0.2307614 -0.13612624 -0.081882045 -0.121692665 0.026850313
-0.17890498 0.32914332 -0.36646262 0.06865868 -0.1796365 0.17917775 -0.35358357 -0.2605179
-0.11690118 0.14346078 0.17431098 0.09478706 -0.43384212 -0.05329845 0.051082753 -0.17273833
0.2238543 0.37668973 0.020889552 0.20755188 -0.46389434 -0.32085696 0.42449772 -0.11892665
0.012848987 0.08684269 -0.094731435 -0.55593437 -0.08973028 -0.13487883 0.30601412 -0.5265493
0.21730766 -0.37326506 -0.38205028 -0.25167713 -0.56531316 0.05045995 -0.13727863 -0.22190836

conv2.bias f4 [32]
00000000: 802d d8be 6883 b9be 73c7 69be cf2c 6abe
00000010: c200 bbbd c7d0 65be 7c9c 4bbe b359 cbbd
00000020: 1b09 3dbe ef98 9cbd b3c5 f9bd 5067 2bbe
00000030: 0e28 2abe 4a62 85bc df63 bcbb 5b7f afbe
00000040: 1765 c0bc b204 e9bd 85e4 48be 0ea4 873e
00000050: 2127 4e3e e9f4 fbbd 23b8 c6be 085e 03bd
00000060: 10a6 96bd e083 093e 00f5 aabe 67d4 b9bd
00000070: 1476 87bd 17e0 84be 0968 bebd 59c0 33bd
-0.42222214 -0.36233068 -0.2282999 -0.22868656 -0.09131004 -0.22442923 -0.19883913 -0.09929218
-0.18460505 -0.07646357 -0.12195911 -0.1673863 -0.16616842 -0.01628222 -0.0057492102 -0.34276852
-0.023485703 -0.11377849 -0.19618423 0.2649235 0.20132114 -0.12302572 -0.3881236 -0.032072097
-0.07355893 0.13429213 -0.33390045 -0.09073716 -0.066143185 -0.25952217 -0.09297187 -0.04388461

conv3.weight f4 [32, 32, 5, 5]
00000000: 827e 873e 540d 6fbe e716 e83e b418 443e
00000010: 3a99 c3bd 82be 263e 8734 ec3e ee94 a2be
00000020: 5b75 e93d fb04 6bbe 4d92 763e b230 b0bd
00000030: 231e 34be 8a4a 373c df22 bdbd e691 c03e
00000040: 98b6 cebe 9523 523d 370c ffbe 6898 27bd
00000050: 7c0b 2bbf 5b49 81bd 29ad 043e f178 723d
00000060: 338a 403e 150e 85be a46d 443e 65e3 5fbd
00000070: 64b8 123e f2bf 6abf 96ff a5be 88fb f0bd
00000080: 7d9d 00bf 0433 c0be 6942 bfbe b8fc e23c
00000090: 04ee e4be 75be 70bd a6d4 7a3d 95d6 e83d
000000a0: 4209 38bd e74f 473e 75be 533e 9b69 5dbe
000000b0: 0a44 a8be bbc0 d53e 70ca b0be ee66 a5bd
000000c0: 49e6 86be 389e 2c3d caea bebe 7525 c3be
000000d0: e3e4 44bd c4ab 3e3e 5dd2 9ebe 52ef 56be
000000e0: 1f44 62be 8bf6 283d 2660 afbe a861 5a3d
000000f0: 1554 7b3e 6350 ae3e 023b 4f3e af82 77be
00000100: 4270 acbe 04ad c7be a95f dc3c 9fc3 0abf
00000110: d133 343f 078f 31bf d302 853e c73c 2e3e
00000120: e494 2dbe 7a44 ddbe c66b 2fbf 9ee9 48bf
00000130: 8d25 43bc 0868 88bc 51b9 043d eb39 0e3e
00000140: 993a 64be ed45 2abe a66c 203e 016c e3be
00000150: 0e61 863e 40d7 a2be 14a7 e23d ba58 81be
00000160: aed7 4ebf 8b26 33be 6502 b03d 2a1f 07bf
00000170: ecd0 4cbe fbe4 0fbf 13d5 b03b 85d7 e8bd
00000180: c035 c3be d7dd 803e 4904 04bf 4469 263f
00000190: 8e1f 3ebe 2141 afbc 4d1c 6b3e a88b d9be
000001a0: ec1a 6a3d fbd0 f9be 045a 13be 8acb 3c3d
000001b0: e612 51bf f1a0 753e ee82 63b9 1f7e f2bd
000001c0: b420 933e 5f10 a2be b140 093d 9722 49be
000001d0: 77f2 ca3e 147a 2e3e 4503 b5bc c20c d8be
000001e0: c135 41be df95 93be 190f 87be f4ad 86be
000001f0: 947e 443f a7b2 d6be 1e20 e8be c07e 34bf
00000200: 29a2 013e 416a 5d3e 513e 01bd 1fa4 41be
00000210: dde8 a63e 6c4b 863d 5125 a8bd d969 dfbd
00000220: 2da0 edbe 86cc 813d 6fc0 5ebe db60 e63e
00000230: ca59 06be 6d4d ebbc 266a 00bf 9154 5cbf
00000240: 7ddb aebe 1c14 fe3e f73d 493e 8edd 09bf
00000250: fa4d 023e 3356 6f3e 34eb 8abe c183 9dbe
00000260: a5f2 983e 7ccd 953e 006d 2fbd 54eb abbe
00000270: 72a0 e03e 85d9 1b3f 7d15 2abe 6612 7dbb
00000280: e915 f73e 8974 bb3e bdd0 943e 7fbe 31be
00000290: 9cd3 96bd 95bf 793e f798 61bd bb2f 17bf
000002a0: 134d 7b3e ae1d dfbd 56cb 1e3f 75b1 7cbe
000002b0: 7455 7bbf 3926 b7be 0c2d 4ebd e9a8 d03e
000002c0: 40fb 53bd 6a3f 4fbf e442 ad3e 8c2a 37be
000002d0: f2a0 83be 0a1d 2a3e cf13 273e 465b dd3c
000002e0: af34 b3bd c5e7 443f 6e48 5e3e 5506 bc3e
000002f0: ada5 973e 92d6 a9bd 49f1 1abd 9663 363d
00000300: 1270 0cbd 738c 3cbe ad51 873e 8000 0fbe
00000310: 646d 833d afed e5be d020 65bf 2043 0e3f
00000320: 430b 2d3e b6e8 40bc 0c26 a43d 544e 893e
00000330: 1fde 74be ef7d f93d 44e2 45be 6a87 6b3e
00000340: 24fe 6e3e e67e 023f 5422 ba3d afde 693e
00000350: e865 ba3e 5857 b0bd 272d 9abe 5d98 953e
00000360: 321f 3ebd fbb7 7bbe 36cb dabe 3ee7 f4be
00000370: 43c6 afbe eef6 913e 3241 20bf efbc c1bd
00000380: e599 fd3c 32e7 1fbf eac6 9ebd 2dc8 acbc
00000390: 9cbe 263e f5ac 3b3e c75a 2ebf 374f 913d
000003a0: edea b2bd 9a78 573e da84 4e3e e959 613e
000003b0: 0ee9 cabe a455 82be 04b1 e43d 280f 5fbe
000003c0: 4a37 a53d ce9e 67be 1b2c 7abe 46d9 083e
000003d0: c79f 4fbe 8741 d5be b3a6 2b3d e3c2 03be
000003e0: 76de afbe ed86 1f3f 729d efbe 823d 2e3e
000003f0: 90fc c2bd 6d7e c9be 43be 373e 6087 12bd
0.26463705 -0.23344928 0.45329973 0.19150048 -0.0955071 0.1628361 0.46133825 -0.3175425
0.11399337 -0.22951119 0.24079247 -0.08603038 -0.17589621 0.011187205 -0.09235167 0.37611312
-0.40373683 0.051303465 -0.49814007 -0.04091683 -0.668144 -0.063128196 0.1295668 0.05919737
0.18802719 -0.25987306 0.1918245 -0.05466022 0.14328152 -0.91699135 -0.3242156 -0.11766726
-0.5024031 -0.37538922 -0.37355354 0.027708396 -0.44712842 -0.058775384 0.061237954 0.11369053
-0.044930704 0.19464074 0.20678122 -0.21622317 -0.3286441 0.41748604 -0.34529448 -0.08076273
-0.2634757 0.042143077 -0.37288505 -0.38114515 -0.048069846 0.18620211 -0.3101987 -0.20989731
-0.22096299 0.041250747 -0.34253043 0.05331579 0.24543793 0.34045705 0.20237353 -0.24170946
-0.33679396 -0.38999188 0.026901083 -0.54204744 0.70391566 -0.6935887 0.25978717 0.17015372
-0.16951329 -0.43216306 -0.68523824 -0.7848147 -0.011910808 -0.016651168 0.032403294 0.13889281
-0.22287978 -0.16628237 0.15666446 -0.44418338 0.26245922 -0.31804848 0.11067024 -0.25263005
-0.8079785 -0.17495172 0.08594207 -0.5278193 -0.20001572 -0.5620877 0.005396494 -0.11369232
-0.38126945 0.2516925 -0.5156904 0.6500437 -0.18566725 -0.02139336 0.22960015 -0.42489362
0.05715458 -0.48792252 -0.14389807 0.046092547 -0.8166946 0.23987176 -0.00021697182 -0.11840462
0.28735888 -0.31653115 0.03350896 -0.19642101 0.3963811 0.17038757 -0.022096286 -0.42197233
-0.18868162 -0.2882528 -0.26378706 -0.2630459 0.7675564 -0.41933176 -0.45337003 -0.70505905
0.12659515 0.21622564 -0.03155357 -0.18910263 0.32599536 0.06557354 -0.082102425 -0.10908861
-0.46411267 0.06337838 -0.21753095 0.4499577 -0.1312019 -0.028723443 -0.5016197 -0.8606654
-0.3415183 0.49624717 0.19652544 -0.5385369 0.12725058 0.23372726 -0.2713257 -0.30764583
0.29872623 0.29258335 -0.04282856 -0.3357798 0.4387241 0.60878783 -0.1660976 -0.0038615703
0.48258904 0.36612347 0.29065505 -0.17357825 -0.0736458 0.24389489 -0.05507752 -0.59057206
0.2454112 -0.10894333 0.62029016 -0.2467707 -0.98177266 -0.3577135 -0.05033593 0.40753868
-0.051753283 -0.8095614 0.33840096 -0.17887324 -0.2570873 0.1661264 0.1631615 0.027021062
-0.08750283 0.7691615 0.21707317 0.3672358 0.29618588 -0.08292879 -0.037827764 0.044528566
-0.034286566 -0.18412952 0.264295 -0.13965034 0.06417349 -0.449079 -0.8950319 0.55571175
0.16898827 -0.011774233 0.08015069 0.26817572 -0.23912857 0.12182223 -0.19324595 0.23000875
0.23339134 0.5097488 0.09088579 0.22838853 0.36405873 -0.086104095 -0.30112574 0.29217806
-0.04641647 -0.24581902 -0.42733163 -0.47832674 -0.3433095 0.28508705 -0.6259948 -0.09459864
0.030957172 -0.6246215 -0.077527836 -0.021091545 0.16283649 0.18327697 -0.68107265 0.07095187
-0.08736215 0.210421 0.20167866 0.22006954 -0.39630932 -0.25455964 0.111665756 -0.21783125
0.08067186 -0.22619173 -0.24430887 0.13364133 -0.20275794 -0.41651556 0.041907024 -0.12867312
-0.34349412 0.62315255 -0.4679981 0.17015651 -0.09520829 -0.39354268 0.17943673 -0.035773635

conv3.bias f4 [32]
00000000: a232 4dbe 843c d5be 104d 80be 657b d33d
00000010: 0460 63be 1384 9bbe b6c8 eb3d c430 d0be
00000020: d66d 72be d0b8 6dbe 0ee3 1fbe b931 70be
00000030: 0623 873c a3d0 f7be 82f1 76be 6eb7 f8be
00000040: 1cf0 5dbd 4437 56bd b989 8ebe c8f8 f2bd
00000050: 1c45 8ebe 2297 a0be a8e4 1c3e c1d6 5dbe
00000060: 127e 92be bed0 f0be 01b2 f4bc c8c6 38be
00000070: 609d 80be 90f6 c0be 6dfa e3be 4ed0 b1be
-0.20038846 -0.41647732 -0.25058794 0.1032627 -0.22204596 -0.30374202 0.11512892 -0.40662205
-0.23674712 -0.23215032 -0.15613958 -0.23456468 0.016496193 -0.48401365 -0.24115565 -0.48577446
-0.054184064 -0.0522988 -0.2783945 -0.118638575 -0.277871 -0.31365305 0.153216 -0.21663953
-0.2861181 -0.47034258 -0.029870035 -0.18044579 -0.25120068 -0.37688112 -0.44526997 -0.34729236

conv4.weight f4 [32, 32, 5, 5]
00000000: 61a1 c7bd 873f fcbd 50c0 40be ed3d 35bf
00000010: 82ec f23d c50f b73c 46e8 24be b3e2 003e
00000020: ed83 163e 5ae8 7fbd 5d2a 96be f643 a5bd
00000030: c62b 79bd 45f8 ce3c 6f7b babe b566 ab3d
00000040: c670 8abe 5fc6 c0be 4c72 753d fe34 debe
00000050: 9374 a5be 1c6d bcbc 9c23 01bf 254f 36be
00000060: f4cf 7fbe ef9a 9a3d e473 81be d4e8 98bd
00000070: 7aff c6be 4eb4 d03d caa4 b6b9 70aa 7d3e
00000080: 7ca5 a43c 6674 66be 447b 3ebf cdfc ac3e
00000090: f130 4dbe 533e 17bf c223 d6be e1f0 00bf
000000a0: b614 693e a75f 2d3e fbe1 023e d8f8 1bbe
000000b0: 4ced 49bd b06d 02bf 2311 24bf 6c04 953e
000000c0: 4151 173e 5394 633e d029 03bf d314 3b3d
000000d0: 7170 3fbf 7016 c23d 76a5 99be 642c 693e
000000e0: 7b61 24be 1e30 e43d c2ef 9fbd a3ed 423e
000000f0: c03c 7abe f6b5 23be 6380 a2be 8edc bb3d
00000100: f29b 05bd 6145 983e 1e2e cc3d bb1f c73e
00000110: ff5e 3d3e 3701 583e 8f8c 3bbe e616 e73e
00000120: 6926 9c3d 6cfc bcbe 553e 24be a918 093e
00000130: 36ae 66bf 7b6c 03be b0ed ce3c bc15 e1be
00000140: 02f0 203e c17b 0ebf de2b d0be a9b5 6bbe
00000150: 51e4 7ebe b911 74be 8d31 d8be 4dab ed3d
00000160: 562b 2c3e 2a03 193d c1a9 553e 137b 4e3d
00000170: e3b2 853e 34cf 5fbf 9cb4 2cbf a3ee 36bf
00000180: 0cc8 b4be 954e babe 97aa 29bd 5df8 e2be
00000190: 364b f43d 410a 0c3f 8c97 10be 5c46 e9bd
000001a0: 7cf7 293d 03a6 293f 29bc 3d3f ee1d 62bd
000001b0: 8676 b7bd 106a 983d 6847 ad3e 2e1a b1bd
000001c0: 33ea 2d3f e915 913e c1e9 f1be 06b8 e9bd
000001d0: 8dd0 77bf 66c4 b83e fb8a 12bb fe23 fa3e
000001e0: 1c4c 4bbf 9a4a 37bf d70e bebd e267 e2be
000001f0: b348 5e3e c5c8 183e f500 72be 9ef7 e4be
00000200: 3140 5bbd 39dd 7dbd c4bb 3b3d b301 7a3c
00000210: 0f75 12be 16fa a9be 7e92 d23e 6b92 d53e
00000220: b5d0 98be 017f 92be 82f5 6c3e 492f f1bd
00000230: aac8 f0be 767b a1be 3440 83be 665f 01be
00000240: 0e79 08bf 499c 633e a491 9ebe 419f 0cbe
00000250: fdc8 1bbf dc89 0d3e 8326 3b3e c4c3 0f3f
00000260: 63ea 933d c83e 743e 42b3 afbd 7f2b 433e
00000270: 1efe 1e3f 2e8d ec3e dc9a 0b3d d830 27be
00000280: 29d2 083f 4d87 3d3e 09f3 45bd 6c39 03bd
00000290: a472 40be 306a 9b3e 6f06 913e bbff dbbe
000002a0: 4ad1 2ebe ac21 c13e 8b63 d33e d645 053f
000002b0: 1dcb bc3d e68e 763e 0fc4 c53e 9fdc ca3e
000002c0: ae68 153f ae79 b2be b7f8 4d3d e510 eebe
000002d0: f7b6 923e a22b 17be e744 f23e df30 02bf
000002e0: 076e a43c 4442 7cbe 35c7 23be 4e5b 343e
000002f0: 130b bbbe a0e5 e6bd dc0e 413e 273a 1f3d
00000300: 4747 80bf 7c41 38bf f01b 52bd 2783 0dbe
00000310: 813e 353e d5c4 11bf 512f 3b3f 1992 b03d
00000320: 3d5c 903e 847d 81be 47de 87bc cd20 063e
00000330: 0190 95be 3467 7d3e 07ef 023d a864 78be
00000340: 98b9 f83d 42cb 60be 3f81 0fbe 6320 853e
00000350: ca18 c1be 6b4e 16bf 0480 86be 2d17 6cbe
00000360: 848e aa3e a0f2 c53e 2e0c 29bb 9fde 5d3e
00000370: 5226 9bbe 0fbd 4ebb 558e c3be ba56 393e
00000380: 193f 103f 98ae ffbd e18f 393e c8f1 df3e
00000390: 5cd4 793c 56c3 c13e 0046 4fbe 198a 583d
000003a0: b24d 463e 4b16 89be f584 42bd 6d4f 1cbf
000003b0: 73e3 273e 49d8 97be 9989 65bf 85a1 f2bd
000003c0: 3d58 14bc 2723 f4be ecef 6e3e 4246 c9be
000003d0: cea5 a2bd cf8e a2be 3da6 543a d91a 473d
000003e0: b692 88bd e182 303d 0388 82be 53c0 1e3e
000003f0: 32af 2cbe e094 babe 9292 18bf e0f9 b5bc
-0.097475775 -0.123168044 -0.18823361 -0.70797616 0.118615165 0.022346387 -0.1610423 0.12586479
0.14698763 -0.062477447 -0.29329196 -0.08069603 -0.06083276 0.025264869 -0.36422297 0.08369199
-0.27039164 -0.37651345 0.059923455 -0.43399805 -0.32315502 -0.023001246 -0.5044496 -0.17803629
-0.24981672 0.075490825 -0.2528373 -0.074662834 -0.38866788 0.101906404 -0.00034836523 0.24772048
0.02009844 -0.2250534 -0.7440684 0.33786622 -0.20038201 -0.59079474 -0.41824156 -0.5036755
0.22761807 0.1693102 0.12781517 -0.15231645 -0.04929857 -0.5094862 -0.6408865 0.29104936
0.1477709 0.2222455 -0.51235676 0.045674156 -0.74780947 0.09476936 -0.3000905 0.2277084
-0.16052811 0.1114199 -0.07809402 0.19035964 -0.24437237 -0.15987381 -0.31738576 0.09172927
-0.032619424 0.29740432 0.09969734 0.38891396 0.1849327 0.21094213 -0.18315338 0.45134658
0.07624514 -0.36911333 -0.16039403 0.13388313 -0.90109575 -0.12834351 0.025259823 -0.43961895
0.15716556 -0.55657583 -0.40658468 -0.23018517 -0.24891783 -0.23834886 -0.42225304 0.11604939
0.16813406 0.037356533 0.20865537 0.05041034 0.26113042 -0.8742554 -0.6746309 -0.7145788
-0.35308874 -0.36388078 -0.041422453 -0.4433011 0.11928408 0.54703146 -0.1412031 -0.11390373
0.041495785 0.6626894 0.74115235 -0.055204324 -0.089581534 0.07442105 0.3384354 -0.086475715
0.67935485 0.2833703 -0.47248653 -0.11412053 -0.968026 0.3608734 -0.002236067 0.48855585
-0.7941301 -0.7159821 -0.09280174 -0.4421988 0.2170742 0.14920337 -0.23633178 -0.44720167
-0.053528015 -0.061978552 0.045833364 0.015259194 -0.14302467 -0.33198613 0.4112739 0.4171327
-0.2984673 -0.2861252 0.23140529 -0.11776597 -0.47028095 -0.31539506 -0.2563492 -0.12634048
-0.53309715 0.22227587 -0.3097049 -0.13732626 -0.6085356 0.1382212 0.1827641 0.5615809
0.0722244 0.23852074 -0.085791126 0.19059561 0.621065 0.46201462 0.034083232 -0.16327226
0.5344568 0.18508644 -0.04832748 -0.032037184 -0.18793732 0.30354452 0.2832522 -0.42968544
-0.17072025 0.37721002 0.41286883 0.52059686 0.09218428 0.24077949 0.38626143 0.39621446
0.58362854 -0.3485846 0.05028602 -0.46497265 0.28655216 -0.14762738 0.47318193 -0.5085582
0.020071996 -0.24634653 -0.1599396 0.17612955 -0.36531886 -0.11274266 0.18853325 0.038873818
-1.0021752 -0.7197492 -0.051296175 -0.13819562 0.17699625 -0.56940967 0.73119074 0.08621616
0.28195372 -0.25291073 -0.016585482 0.1309845 -0.2921143 0.247464 0.031966235 -0.24257147
0.12144774 -0.21952537 -0.14014147 0.26001272 -0.37714225 -0.58713406 -0.26269543 -0.23055716
0.33311856 0.3866167 -0.0025794613 0.21666954 -0.30302674 -0.0031545793 -0.38194528 0.1809949
0.5634628 -0.12484473 0.18121292 0.43739152 0.015248384 0.37844342 -0.20241547 0.052866075
0.19365576 -0.2677482 -0.04749008 -0.61058694 0.16395359 -0.296572 -0.8966308 -0.11847214
-0.009054241 -0.4768307 0.2333371 -0.39311415 -0.07941781 -0.3174958 0.00081119296 0.04860959
-0.06668608 0.043093566 -0.25494394 0.15503053 -0.16863707 -0.36441708 -0.5959865 -0.022213876

conv4.bias f4 [32]
00000000: 2e42 abbe 0362 dcbe 9c5e b83d d875 53bf
00000010: c4cb 19be cab3 bc3e dcd3 98be 78aa febe
00000020: c720 0ebe 8046 11bd 7ee8 d23d a669 c2be
00000030: 48f9 11bf e263 0abf a725 da3d 779a d9be
00000040: bc70 343e c45d ab3d f07a 36bf 7298 d73e
00000050: c94a 5ebe 7a99 33be d76d 17bf e13a cbbe
00000060: 5a9a fabe d19a b73e 0b05 4cbf 012d 27be
00000070: 441e 953e a1a6 55bd b6e9 90be b046 febe
-0.3344893 -0.43043527 0.0900242 -0.8260169 -0.15019137 0.36855918 -0.29849136 -0.49739432
-0.13879691 -0.035467625 0.102982506 -0.37971228 -0.57021 -0.5405866 0.10651713 -0.4250066
0.1762113 0.08367494 -0.7128134 0.42108494 -0.21708216 -0.17539015 -0.5915198 -0.3969336
-0.48945886 0.35860303 -0.79695195 -0.16325761 0.29124653 -0.052160863 -0.28303307 -0.49663305

conv5.weight f4 [32, 32, 5, 5]
00000000: c1c3 89bd 55ce 3a3e 2c2b 5bbd 84db 73bf
00000010: 9445 c2be 511e 87be 384a a93d db01 173e
00000020: 47f8 6fbd 2dac 87bd fa4e 043e 9c5f 923e
00000030: b9b6 cc3e b7d0 653e 9f3b 98bd 233f aebd
00000040: cdd4 adbe 563d 673e e462 ba3e ef4d 78be
00000050: ae56 2a3e 12fd 9bbe d2af 903e f765 90be
00000060: 4e65 10be 5c87 cd3d f68e 1a3f fed5 65bd
00000070: f38e 2fbe 3f42 9fbe 1174 cabd d6e8 67be
00000080: eae4 28bf 1a24 aebe 7e60 77be 1506 84bf
00000090: 1560 f4bd 3a9f d73c d1dd 053f 6c0d a33e
000000a0: ecf0 ad3e 1dea 123e f32c 5abf ad0a 0e3f
000000b0: b9a4 103e a1db b63e a300 61be 2aeb 363e
000000c0: 07bc 4dbf 0492 16bf 8dee 103f a4dd 233f
000000d0: 42a4 54be a7c7 923d 7102 3d3e 0a62 5fbf
000000e0: 3540 5fbe 9d00 debe 44a9 a03e 070d b0be
000000f0: fcb3 27bf 8e66 6fbe d494 0ebe ce79 ad3e
00000100: ad21 ce3d c067 403e 77cc 74be 0879 57bf
00000110: ca26 773d f4a8 5cbe 990c 303e 428d 03be
00000120: 80e7 d2be 4e0c b23e 3134 113f 8d55 5fbc
00000130: 6918 213e 3a74 20bf 8328 8fbe 161c e73e
00000140: 2c03 2dbe 4487 0d3e 2f0b 813e abe8 dbbe
00000150: f711 bbbe fcb7 9abe a2b7 d13b bb6f 603e
00000160: 1bb1 3d3d 59e9 2abe 77f3 513e a8ab e73e
00000170: c113 073e 8e8f b43d 841f 143f b306 4a3e
00000180: d050 48bf d921 c03d 1e1b 16be 17f9 d9bd
00000190: 95a0 e63d 5b75 9cbe 0d45 39bf 8d7f 00bf
000001a0: 0f82 043e ba08 9cbe 4e5a a3be 2e75 c63e
000001b0: 6c21 52be 28ac f13e 5df9 44be 9450 44be
000001c0: d41a 9cbd 9708 a0be 2f09 dcbc 92c1 b8bc
000001d0: 1261 73bd d24f e0be 8e2e bcbd b271 02be
000001e0: a416 9fbe d821 64bd 1df2 9dbe bdf5 4fbe
000001f0: 7d3b fb3d 4d2f 92be ec7c 02bb 60ab 22be
00000200: d6ae 6b3e 9eec 58bf 3660 8cbe 291a 85bd
00000210: 0b33 b3be 4582 9e3d 8c14 04be d9c3 2dbe
00000220: 37fa 983e c89c acbc fbc8 b7bd 6c11 4cbe
00000230: 0863 f43e c5b9 a93e 9b8f 5d3e 8ee3 24be
00000240: cc53 33be ce73 11be 3de5 91be 6e92 6c3d
00000250: 507e a63e 0ae9 c6bd e69f e3be 84bf 0dbf
00000260: 40b8 90be dcf8 f03e 9c0a 383d c40b 92bb
00000270: f8b8 4cbe 4296 f8bd 8693 ae3e 954a 323e
00000280: 5679 7d3e 26c9 fbbe 8e6e 4ebc 62a0 efbe
00000290: f354 74bd e6a8 f93d 1c08 8cbd 69c3 bbbe
000002a0: 5c57 523e 810c 16bd 7eb8 7cbe e773 2a3e
000002b0: 141a 70bf 3f10 9ebe 4947 83bd 73eb 6f3e
000002c0: 4579 97be 6ae7 cabe c510 183d e400 623e
000002d0: cfd3 77be e842 163e 9f47 26bf 0b65 01bd
000002e0: 3cb4 33be 1be5 4c3e 4651 3abf eb7a af3d
000002f0: 5651 723e 358f 893e 8cf1 f5bc bce7 a5bd
00000300: 859c a6be a05c 8fbb faae 473e 2cf7 32be
00000310: 1167 d9be aa51 023e 992b 8abe d13b c2be
00000320: d4fe 0bbf 1c28 d7bd 0cbe f2bd 9b08 febe
00000330: b796 93bd 08df b3be 8b0a 813d a250 e33d
00000340: d128 fc3e 92a5 01bf 4c02 26bf b8af 76bd
00000350: 1d7c 9ebe 8348 c7bd d719 9c3e 3107 ad3e
00000360: 32f3 e4be 42c3 0cbe 256b febd 072d af3e
00000370: c1a7 863e bef0 b0be 9f4a 8cbd bca4 bf3c
00000380: bd04 773e ae20 6bbf 09d6 59bf 9d43 04bf
00000390: 0f0f a0bd df99 de3d 5158 a83d 85e3 88be
000003a0: 0c07 94be 6c3c 263d 934f 41be 5b7f 8dbd
000003b0: e82b 54bd 0910 c3be 1db4 ce3d 7d9a aabe
000003c0: b03b 04be 0fc1 833e 1c33 2a3c 2809 3cbf
000003d0: d866 8039 8452 eabd a4bb 9bbe a782 26bf
000003e0: 012f c43d 45ef 19be 8cef 29bf 4119 a5be
000003f0: e0e5 0fbe 49aa cfbe 9a80 6a3e 04b5 bd3e
-0.0672679 0.18242772 -0.05350797 -0.9525683 -0.3794371 -0.26390317 0.08266109 0.14746802
-0.058586385 -0.06624637 0.12920752 0.2858857 0.39983156 0.224429 -0.07433247 -0.08508136
-0.33951417 0.22581992 0.36403573 -0.2424848 0.16634628 -0.30466515 0.2825914 -0.28202793
-0.14101145 0.100355834 0.6037439 -0.056112282 -0.17144375 -0.3110523 -0.09885419 -0.22647414
-0.65974295 -0.34011918 -0.24157903 -1.0314356 -0.11932389 0.026321042 0.5229159 0.31846178
0.3397287 0.1434712 -0.8522484 0.5548504 0.14125337 0.3571444 -0.21972899 0.17863145
-0.8036503 -0.5881655 0.56614 0.6401007 -0.20765784 0.07166987 0.18457963 -0.8725897
-0.21801837 -0.43359843 0.3137914 -0.3438494 -0.6550901 -0.23378965 -0.13923961 0.33881992
0.10065017 0.18789577 -0.23906122 -0.84169054 0.060339727 -0.21548826 0.17192306 -0.12846854
-0.41192245 0.34775013 0.5672026 -0.013631237 0.15731968 -0.6267735 -0.27960595 0.45138615
-0.16895741 0.13821131 0.25203845 -0.4295095 -0.36537144 -0.30218494 0.0064000646 0.21917622
0.04631148 -0.16690578 0.2050303 0.4524815 0.1319113 0.088164434 0.5786059 0.19729118
-0.7824831 0.09381456 -0.14658782 -0.10643213 0.11261097 -0.30558285 -0.7237099 -0.5019463
0.12940238 -0.30475408 -0.31904835 0.38761276 -0.20520562 0.47201657 -0.1923575 -0.19171363
-0.076223046 -0.31256554 -0.026859848 -0.022553239 -0.059418745 -0.43810898 -0.09188567 -0.12738684
-0.3107196 -0.05569634 -0.3084878 -0.20308585 0.12267206 -0.28551713 -0.0019910885 -0.15885687
0.23015913 -0.8473605 -0.27417153 -0.0649913 -0.3499988 0.07739691 -0.12898463 -0.16969241
0.298784 -0.021070853 -0.08973881 -0.19928521 0.47731805 0.33149543 0.21636812 -0.1610243
-0.17512435 -0.14204332 -0.28495207 0.057756834 0.32518244 -0.097124174 -0.4445793 -0.55370355
-0.28265572 0.47064865 0.044931993 -0.004456969 -0.19992435 -0.121380344 0.34096926 0.17411263
0.24753317 -0.49176902 -0.0125996005 -0.4680205 -0.059651326 0.12190418 -0.06837484 -0.36672524
0.20541137 -0.03663302 -0.24679753 0.16645776 -0.9378979 -0.3087177 -0.06410081 0.2342966
-0.2958471 -0.3962968 0.037125368 0.22070652 -0.24201892 0.1467396 -0.64953035 -0.031590503
-0.17549223 0.20009272 -0.72780263 0.085683666 0.2366384 0.2686707 -0.030022405 -0.081008404
-0.3254129 -0.0043750554 0.19500342 -0.17477101 -0.42461446 0.12726465 -0.26986387 -0.3793626
-0.5468571 -0.10505697 -0.11852655 -0.4961594 -0.07206481 -0.35131097 0.06300839 0.11099364
0.4924989 -0.50643265 -0.64847255 -0.060226172 -0.30954066 -0.097306274 0.30488464 0.3379455
-0.44716793 -0.1374636 -0.1242278 0.3421404 0.2629986 -0.34558672 -0.0685017 0.023393981
0.24122901 -0.9184674 -0.85092217 -0.5166567 -0.07815372 0.10869192 0.0821997 -0.26736084
-0.28911626 0.040584967 -0.18878011 -0.06909057 -0.051799685 -0.3809817 0.10092948 -0.3332099
-0.12913394 0.2573323 0.010388162 -0.7345147 0.00024490687 -0.1144152 -0.30416596 -0.6504311
0.09579278 -0.1503268 -0.66381145 -0.3224583 -0.14052534 -0.40559605 0.2290062 0.37052166

conv5.bias f4 [32]
00000000: 0993 03be 7c90 87be 51b1 1cbf ba3a d6be
00000010: f41d 15bf 21ac 32bf b0c8 93be 4a1b a33e
00000020: 0eac 85bf 999c 17bf d598 f93e 7908 74bf
00000030: 915d 0e3e 33b8 2c3e 0a1f 44bf dcb1 2abe
00000040: 0ee2 543d 83f9 003f 1a51 ccbe 7bc6 843f
00000050: d9b0 1ebf b0a4 333e 4c3b a43d 7e3f 9fbe
00000060: c8f7 30bf 5908 75bd 0a31 9b3f ecf5 42bf
00000070: 58d2 b63e 5865 8dbf 6e78 753f be36 aabd
-0.12849058 -0.2647742 -0.61208063 -0.4184168 -0.5824883 -0.697939 -0.2886405 0.31856757
-1.0443132 -0.59223324 0.48749414 -0.9532543 0.1390288 0.16867141 -0.7660986 -0.1666941
0.051973395 0.50380725 -0.39905626 1.0373071 -0.619886 0.17543292 0.080191225 -0.31103128
-0.69128084 -0.059822414 1.212434 -0.76156497 0.35707355 -1.1046553 0.95886886 -0.083112225

conv6.weight f4 [32, 32, 5, 5]
00000000: b0d6 823e 9eb9 0d3d 78c1 b53d 7d13 393e
00000010: d530 8fbe 9af0 ffbc 3cec 0abe b5b0 7dbd
00000020: d99d 993e 57cc 3abe 5b5d 21be 75f7 3dbd
00000030: 0ae5 903d 2333 34be e0b6 87be 0408 ba3e
00000040: 941f 3f3e 1ecd 043f f8d7 a53e 1536 e83d
00000050: 3ec7 b5be 1aee 513e 8798 98be 9ceb 1fbe
00000060: 123b d7bb ef5f 0c3f 726f f93d e6e1 c4be
00000070: 9d05 3ebe 86fb 9ebe 5108 7b3c 2f19 24be
00000080: b56b 1fbf b3da 5dbe 149a d03d 33d7 ebbe
00000090: 9829 9d3e 6692 81bd fa71 24be cc84 d8be
000000a0: e35e 5ebd da90 2f3d 6372 3e3e 3b2d e73d
000000b0: 5653 843e a42b 663e de4b 933e 7743 29be
000000c0: 425c 2e3d 03fe 093e 7df7 11bf 4a16 b8bd
000000d0: 428a 97be 63ae 71be 9655 02be 99bc cb3d
000000e0: 8116 0d3e 6e95 dcbc 15c5 863d a09b d6bd
000000f0: a3f9 59bc a247 debd a8f9 b83e 8375 c5bd
00000100: c4e4 103e 0f46 503d 239a 0ebf f836 1d3e
00000110: dbeb 87be 85a6 2dbf e36e 1d3d c86d dc3d
00000120: 2f2e 44be 2d79 1abe 5f21 9fbe 9583 a03e
00000130: 4c92 bebc 5e3c 8dbe a986 4abf 1220 93bd
00000140: 36c2 0dbf ba9f e3be bd2c 3dbe 5469 513d
00000150: 3fa4 1bbe aecb 4c3e 7df6 89be 0ab4 163f
00000160: 0945 303e e7db f63d 68cd 263e fa28 20be
00000170: edc8 09be 4b2b 623d 25f5 953e 2eef 433e
00000180: 1774 b7bd 7b64 613d 1c69 803e 6fa7 3ebe
00000190: 2279 c73d fe77 253d 4db0 353e 4dc9 a23d
000001a0: 5096 bdbe 3c71 043f ab85 36bf a720 08bd
000001b0: d181 323c 1732 a8bd 3de5 ee3d fc8d 1dbe
000001c0: 1fac 66be 1ca4 7f3e b86a 9a3d 9a8b 62bd
000001d0: 7de3 cf3d 0817 99be 80a7 153e cefd a53e
000001e0: 69ef f0be bb02 04bf 4fc8 12bf bb63 1cbe
000001f0: 5499 903b 5954 5abf 2338 fabe 2fc4 98be
00000200: 29f8 5f3c 2355 eabe 028e 33bf d4c8 7ebe
00000210: c7a6 a63e 29f8 bb3e f647 46be 7105 05bf
00000220: ed15 523d b8fe 18bf bc39 83be eefb d13d
00000230: f939 dabe b2da eb3d d09c 0cbf a0a0 cfbe
00000240: 9c18 e03d 8515 b13e e311 343f 7188 d2bc
00000250: 1ba6 f0bd 0793 2b3f 428b 9c3e 40e7 6b3d
00000260: 944e cabd 80a1 0abf 9981 1e3e 4e4b 9f3e
00000270: 4758 2fbe e3f1 e03e ae2b 543e 193d b13d
00000280: c10f 3abe 7cac b1bd 1ec5 323f 8470 85be
00000290: cce4 ffbd a5ba 1a3e 22bd fa3e 796d 843c
000002a0: 9e8f f53d d655 c2be c21f c3bc 6f38 96be
000002b0: 0d4e b3bd ed1d 35be 1634 c3bd 998b 96be
000002c0: 0233 72bc ebbf 193d 0567 33be cb8c c7be
000002d0: 8be1 abbe 3f59 0d3d 8677 f83d eb3c d6bd
000002e0: 4bb8 40be 1b67 a0be 2dfa 1c3e a08d 4e3d
000002f0: aa09 6abd d68d 083e d814 403e 7dc7 723e
00000300: e4b5 1a3e 49d8 533e 3592 193d ab67 993e
00000310: 82b9 873e 0975 b33e 92cb 60be cb15 af3c
00000320: 0d1e e2bd 3fb0 04bf ce87 22be 358c b9be
00000330: 3702 37bd 49ee 61be 1015 003d 7a1f 91be
00000340: 0d0d cdbd 74b6 1fbe b59c 13bf f5ad 07bf
00000350: 0aa5 123d 57fd b33c eb5a 343e c4e9 b13e
00000360: 0938 863e 48fd cebd 90df a6bd 63b3 023e
00000370: d559 bf3e 2165 e93e 32c3 fb3b a67e 51be
00000380: cede 823e 3664 d1bd afa5 13bf 9374 733e
00000390: 3f8e d4bd d628 68be 5c5d 81bd 7b04 c1bd
000003a0: 3f38 b9be 83b0 f83d 7360 26be 79a2 a2bd
000003b0: ca35 313c 51d0 593d ec22 7f3f b539 033f
000003c0: e0be d7be 5e0d 9a3e ae41 223d 3275 e33d
000003d0: b99e 973e 1b6d d1be cfd8 3fbc 68b1 d13d
000003e0: aec1 813e 8e68 77be d0a9 1abe eed4 4fbd
000003f0: ee86 113e 552b e3bd e3d4 0dbf 1a5b 89be
0.2555442 0.034600846 0.08874792 0.1807384 -0.27966943 -0.031242657 -0.13566679 -0.0619361
0.3000324 -0.18242012 -0.15758269 -0.04637857 0.07074936 -0.17597632 -0.2650671 0.3633424
0.1866439 0.51875484 0.32391334 0.1133844 -0.35503572 0.20500985 -0.2980387 -0.15617222
-0.006568321 0.54833883 0.1217946 -0.38453597 -0.18556829 -0.31051272 0.015321807 -0.16025232
-0.6227372 -0.21665458 0.10185638 -0.4606262 0.30695796 -0.063267514 -0.16059104 -0.42288816
-0.05428971 0.04286275 0.18598323 0.11287924 0.2584483 0.22477585 0.2876882 -0.16529642
0.042568453 0.13475804 -0.5701826 -0.08988626 -0.2959767 -0.2360168 -0.12727961 0.099480815
0.13778116 -0.026926722 0.06580559 -0.10478902 -0.013304147 -0.108535066 0.36127973 -0.09641554
0.14149767 0.050848063 -0.55703944 0.15353 -0.2654713 -0.67832214 0.038435828 0.107631266
-0.19158243 -0.15085287 -0.31080148 0.3135039 -0.02326312 -0.2758512 -0.79111725 -0.07183851
-0.5537447 -0.444578 -0.18474098 0.05112584 -0.15199374 0.19999573 -0.26945868 0.5886847
0.17213835 0.12053662 0.16289294 -0.15640631 -0.13455553 0.05521707 0.29288593 0.19134209
-0.08957689 0.055027466 0.25080192 -0.18618558 0.09739901 0.040397637 0.17743035 0.07948551
-0.37028742 0.5173528 -0.7129771 -0.033234265 0.010895208 -0.08212679 0.116648175 -0.15386194
-0.22526596 0.24964947 0.07539886 -0.055308916 0.10150812 -0.29900384 0.14614677 0.324202
-0.47057655 -0.51566666 -0.57336897 -0.15272419 0.0044128094 -0.85284954 -0.48870954 -0.29837176
0.013670006 -0.4576808 -0.7013856 -0.24881297 0.32549116 0.3671277 -0.19363388 -0.5196143
0.05129044 -0.5976367 -0.25629985 0.1025313 -0.42622355 0.11516322 -0.54926777 -0.40552235
0.10942194 0.3458673 0.7033979 -0.025699826 -0.11750432 0.6702122 0.30574995 0.057593584
-0.09878269 -0.5415268 0.15479125 0.3111214 -0.17123519 0.43934545 0.20719787 0.086542316
-0.18170072 -0.08675477 0.69832027 -0.26062405 -0.124948114 0.15110262 0.48972422 0.016165482
0.119902834 -0.37956113 -0.023818854 -0.2933993 -0.087551214 -0.17687197 -0.09531419 -0.2940338
-0.014782669 0.037536543 -0.17519768 -0.38974604 -0.33570513 0.03450894 0.12132172 -0.10460838
-0.18820302 -0.31328663 0.1532981 0.050428033 -0.057138123 0.13335356 0.18757951 0.23708911
0.15108448 0.20687975 0.03749295 0.29961905 0.2650872 0.35050228 -0.21952656 0.021372696
-0.11040888 -0.5183143 -0.15872118 -0.36239782 -0.044679847 -0.22063555 0.031270087 -0.28344327
-0.10012255 -0.15596944 -0.5766099 -0.5299981 0.035801925 0.021971388 0.17612807 0.34748662
0.26214626 -0.10106903 -0.0814811 0.12763743 0.37373224 0.45584968 0.007683181 -0.20458469
0.2556061 -0.10224192 -0.5767469 0.23774938 -0.10378694 -0.22671828 -0.06316635 -0.09424683
-0.36175725 0.12143042 -0.1624773 -0.079411454 0.010816047 0.05317718 0.9966266 0.5125993
-0.42137814 0.30088323 0.03961342 0.111063376 0.29613283 -0.40903553 -0.011709406 0.10238916
0.25343078 -0.24160978 -0.15103841 -0.050740175 0.14211628 -0.11092249 -0.55402964 -0.26827317

conv6.bias f4 [32]
00000000: 0405 02bf 0c12 35bf 2d60 5e3d 771e 013d
00000010: 8d16 bd3f dca0 38bf 7225 7fbf 8f99 52be
00000020: 3fd8 2dbf d438 debf 3fe2 60bf c613 39bf
00000030: 855b b6be e42d 9cbf 5f48 9dbf 1916 73bf
00000040: aee9 5abf 0feb 16be 8e23 02bf ee8b 8fbe
00000050: ada0 04bf c9b0 bebe fa0c 1ebf be0d 1cbf
00000060: dad0 88be e70f 903e c005 b0bf 5eeb e23c
00000070: d689 38bf bcb9 c4bc 436d 063f 1c10 8e3f
-0.50788903 -0.7073066 0.05429094 0.031523194 1.4772507 -0.7212045 -0.9966651 -0.2056639
-0.6790809 -1.7361093 -0.87845224 -0.72295797 -0.356167 -1.2201505 -1.2287711 -0.94955593
-0.85512817 -0.14738105 -0.508355 -0.28036445 -0.5180767 -0.3724425 -0.6173855 -0.6095847
-0.2672184 0.28137133 -1.3751755 0.027700122 -0.7208532 -0.024014346 0.5251047 1.1098666

conv7.weight f4 [32, 32, 5, 5]
00000000: a5eb 31bf 7f5b 04bd 4978 a83c d7d0 963d
00000010: 0066 033e e2e3 83be 1049 0cbf 2af7 0d3e
00000020: 4559 19bf 5542 dcbd 2cb1 1abe fb88 3ebe
00000030: ae16 bbbc 98ea 06bf 28d1 00be 994b 0e3e
00000040: bc8a dbbc b918 0bbf c9b5 98be 070d 253e
00000050: 06f8 29bf d0f0 863e 8c5e 463e e4be 2d3d
00000060: a694 9ebd c881 db3e 64ff f6bd e05a f5bb
00000070: 3096 1ebe 56b6 afbe 5695 efbe 2196 92be
00000080: bd9d be3e 2144 95be 05f0 cdbc 6747 a8be
00000090: 182a 0cbf 131e f8be e208 983d 9452 693e
000000a0: 796e 513e 5f05 d1bd 01ad 3ebe 0a0a 19be
000000b0: 82cc 0ebf 8f27 3bbe dda6 e1bd 2d49 d9be
000000c0: 53e8 28bc 6f94 0f3f aae7 4b3d ac18 c2bb
000000d0: 51ce d3be 272f c9be 1304 a43e 3c4b 99be
000000e0: d220 85be ea5c c1be bc28 4d3d e68a 003e
000000f0: 4e0b 45bd d3fd f4be 5761 dfbe b7e8 4ebe
00000100: 5575 883e 1b3b 3bbe d542 f13b a493 cbbe
00000110: 2082 21be 9c18 093e 45f0 313b c862 833e
00000120: 7825 f83b d7e3 0a3d 9dcc 0cbf ce4d c63e
00000130: e6b1 cc3e a012 4c3e 66d8 1e3e 20e2 f8be
00000140: 160e c73e b8b6 a33d b2be b73d 80fe b53e
00000150: 9fae 693e 7cec 623e 1af2 3a3e d2cb c03d
00000160: 1c1d db3e a957 97bd 220a 98bc 5aeb 22bf
00000170: b6e4 79bd ec2e dd3e fa8b bebc 1b1f a13d
00000180: b661 27bf 7914 e63e 07a0 d63e f954 c23e
00000190: c4c8 cb3e bd9e 24bd cfb0 48be 4562 b6bd
000001a0: dce5 1abe 1128 db3c c059 2e3d 5478 4d3e
000001b0: d0f1 98bd 7df9 94be f205 e03c 5784 0fbd
000001c0: 7e92 d7be 43d2 f93c 0aa9 86be 4248 babd
000001d0: 8bcd e63e efa8 ecbd a1d5 dbbe 45cc 6dbd
000001e0: 25e3 7abe c9dc 893e fae0 afbe d457 3bbe
000001f0: f009 6cbd 3930 f5bd 078a 77be 19d1 453e
00000200: 4c1c d63e eed9 2bbe 6db4 b03d d179 debe
00000210: 3b94 c6be a63d 78be cabf bb3c 7225 48be
00000220: 29b7 fcbe 62ee 0a3e dfe9 d33e 804a 193e
00000230: 042e 0cbf 41df eebc c71b 4d3e 44e0 eabc
00000240: c0d3 92bd c3a6 033d bae3 253e 9673 3a3c
00000250: 5c41 943d 1344 77be 4f32 24be 2bae b5bc
00000260: 644b 163f cddc 883c a763 d3bd c9de 813d
00000270: 4b91 043e 46d1 4c3d 9c22 c0be cf0e 3f3d
00000280: a4e0 93be 1a46 0e3d 8e4c 89bd ecc3 21bd
00000290: 4303 f83b 5870 cdbd cf5a 08be 4131 6d3e
000002a0: 4912 023e 4ec0 88be 215d b9be 6683 4a3e
000002b0: 2633 153f 3382 59bf cde4 a7be 11ea c5be
000002c0: d32f abbe 7f83 73be 2c66 583e 6a1f 243d
000002d0: 056f 183d 242b 703e f398 febe a3a8 ac3e
000002e0: ba4c 363d f151 aabe 0203 a4be 6030 8a3e
000002f0: fc83 66bc 3cd2 a13d 9e5a 293e 07ea 383e
00000300: 258e f4bd eeb0 183d b451 c8be b6fa e8be
00000310: 7a53 13bd 1bcf 183e 2c53 983d a4a9 23be
00000320: de57 19be 2f48 1f3e ad7e 2c3f 3a39 863d
00000330: ed54 cebd 02d5 703e f81c 973e e4de 97be
00000340: e630 9e3d 58c3 b2bd a252 b93d 3209 81bd
00000350: 4d56 0e3b a3d3 2c3e cee3 c1bd 368d 9d3e
00000360: 60a7 c43c bf1c babd 0355 7b3e b61b 54bd
00000370: b485 033f 23ae 80bd c59a 78be 40bb b0bd
00000380: 36b3 74bc c7df ddbe 2cc3 d9bd 69f6 d3be
00000390: 995f 2dbe aee1 0b3e 8815 39be f413 82bd
000003a0: b5f7 e8be ade3 21be 8f73 00bf d145 9e3e
000003b0: b5ff 0bbf 94b5 373e 5e04 523d 1434 473d
000003c0: b7ae 28be 5cfd 7a3d 932f 5e3c d695 36be
000003d0: ffc7 21be f7b7 d93d 6422 c13e a5c6 9dbe
000003e0: b81a b83e 75b6 60bd 0cf4 1a3d 0533 0dbe
000003f0: fe21 2dbe e87b 5cbf 324a 29be 8f47 213e
-0.6950019 -0.03231382 0.020565169 0.07364052 0.12831879 -0.25759798 -0.54798985 0.13863817
-0.5990184 -0.10754839 -0.15106648 -0.18606941 -0.022837963 -0.5270171 -0.12579787 0.13896026
-0.026799552 -0.543346 -0.2982619 0.16118251 -0.6639408 0.263556 0.19372004 0.042418376
-0.07743196 0.42872453 -0.12060431 -0.00748764 -0.1548698 -0.343188 -0.46793622 -0.28630164
0.3722972 -0.2915354 -0.025138864 -0.32866976 -0.5475173 -0.48460445 0.07423569 0.22785407
0.20452298 -0.102061026 -0.18620683 -0.14945236 -0.55780804 -0.18276809 -0.11018155 -0.4243864
-0.010309297 0.56085867 0.04978148 -0.0059233513 -0.41368344 -0.39293787 0.32034358 -0.29940212
-0.26001602 -0.377662 0.050087675 0.12552986 -0.048106484 -0.47849903 -0.43628952 -0.20205961
0.26652017 -0.18284266 0.0073627033 -0.39761078 -0.15772295 0.13388294 0.0027151268 0.25661302
0.007572826 0.03390869 -0.54999715 0.38731235 0.39979476 0.1992898 0.15512237 -0.4861002
0.38877934 0.07993835 0.08971919 0.3554573 0.22820519 0.22160524 0.18256417 0.09413876
0.42795646 -0.07389767 -0.01855952 -0.6364037 -0.06100913 0.4319986 -0.023260105 0.07867261
-0.6538347 0.44937494 0.41918966 0.37955454 0.3980161 -0.040190447 -0.19598697 -0.08905462
-0.15126747 0.026752504 0.04256606 0.20065433 -0.07467997 -0.29096594 0.027346585 -0.03503832
-0.42103952 0.030495768 -0.26300842 -0.09095813 0.45078692 -0.11555659 -0.42936423 -0.058056135
-0.24500711 0.26926258 -0.3435133 -0.18295223 -0.057626665 -0.11972088 -0.24173747 0.19318046
0.41818464 -0.16782352 0.086281635 -0.43452314 -0.38784966 -0.24242267 0.0229186 -0.19545534
-0.4935849 0.13567498 0.41389367 0.14969826 -0.54757714 -0.02915919 0.20030127 -0.028671391
-0.07169294 0.03214146 0.16200152 0.011380097 0.07239029 -0.24147062 -0.16034816 -0.022177776
0.58708787 0.016706849 -0.103217416 0.06341321 0.1294605 0.050004266 -0.37526405 0.046644982
-0.28882325 0.034734823 -0.06704055 -0.039493486 0.007568748 -0.100311935 -0.1331589 0.2316332
0.12702288 -0.26709217 -0.36203864 0.19776687 0.5828117 -0.84964293 -0.3279175 -0.3865514
-0.33434924 -0.2378063 0.21132725 0.04006902 0.03721525 0.23453957 -0.49726066 0.3372241
0.044506766 -0.3326564 -0.32033545 0.26990032 -0.014069553 0.07901427 0.16538474 0.18058024
-0.119411744 0.03727811 -0.39124835 -0.45503777 -0.03596828 0.14922754 0.07437739 -0.15982682
-0.14974925 0.1555488 0.6738079 0.06553884 -0.10074792 0.23518756 0.2951429 -0.2966224
0.077241704 -0.08728665 0.09048964 -0.06300582 0.002171892 0.16877608 -0.094672784 0.30771798
0.024005592 -0.09087514 0.24544148 -0.05178424 0.5137589 -0.06283214 -0.2427779 -0.08629465
-0.014935305 -0.4333479 -0.10632929 -0.41398934 -0.16930999 0.13660309 -0.1807462 -0.06351462
-0.45501485 -0.15809508 -0.5017633 0.3091264 -0.5468705 0.1794036 0.051273696 0.04863365
-0.16472898 0.06127678 0.013561147 -0.17830595 -0.15798949 0.10630792 0.3772155 -0.30815616
0.35957885 -0.054861505 0.037830397 -0.13788994 -0.16907498 -0.86126566 -0.1653221 0.15749954

conv7.bias f4 [32]
00000000: 339b 3abf f3da 15be 34ce 1dbf 0857 df3f
00000010: 10b3 4abf 0986 64bf 420f 2abf 6a75 aebd
00000020: a367 97be 63be 14bf 6965 993f 05cd 0c3f
00000030: 97d3 15bf a4f5 1940 6e9f 1dbe cfd7 29be
00000040: 48d4 10be 1110 e73f e4ad 64bf 64dc 963f
00000050: 5e8d 92bf a0e1 e3bf 6b66 e33e f95f 8dbf
00000060: 2a15 343f 439c 74be 8944 f0bf b5bf 05bf
00000070: 7ee9 aebf 4e75 8cbf 03c2 13bf 18ae fbbd
-0.72893065 -0.14634304 -0.61642766 1.7448435 -0.7917948 -0.8926702 -0.6642953 -0.08518489
-0.29571256 -0.5810301 1.1984073 0.55000335 -0.58525985 2.4056177 -0.15392849 -0.1658623
-0.14143479 1.8051778 -0.89327836 1.1786008 -1.1449392 -1.780323 0.44414076 -1.1044914
0.70344794 -0.23887734 -1.8770915 -0.52245647 -1.3665006 -1.0973299 -0.57717913 -0.12289065
